f16/models/stackedOutput/3400DataPoints/pred_future_window_25/skip_step_3/firstTryLSTM_alt_theta_hAndc.pt (torch, 46032 bytes, 14 tensors)

lstm.weight_ih_l0 f4 [100, 2]
0	0x3ddd7f4c	0.108152956
1	0x3e95ba2e	0.29243606
2	0xbd549557	-0.051900234
3	0xbcd05a9f	-0.025433837
4	0x3eb251a9	0.34827927
5	0x3e71158e	0.23543379
6	0x3d5c3dcf	0.053769883
7	0xbed9a29b	-0.4250687
8	0xbd8c0f8f	-0.06838905
9	0x3f03994d	0.51405793
10	0x3eab6eaa	0.33482867
11	0x3ec4c50a	0.3843158
12	0x3f93af54	1.1537881
13	0x3f013875	0.5047677
14	0xba415706	-0.0007375333
15	0xbf1cfbfb	-0.6132199
16	0x3eda5ba3	0.42648038
17	0x3e60e793	0.21963339
18	0x3f1c98a0	0.6117039
19	0xbea75a97	-0.32686302
20	0x3f84e1b9	1.0381385
21	0xbccafcfb	-0.024778834
22	0x3dc60b9c	0.09670183
23	0x3ec62dc2	0.38706785
24	0x3ebf6122	0.37378794
25	0x3f70f34e	0.94121253
26	0xbd6bebbb	-0.057597857
27	0xbd8c2768	-0.06843454
28	0x3f108358	0.56450415
29	0xbd0fbf0c	-0.035094306
30	0x3e4c418d	0.1994688
31	0x3f1d60a8	0.6147561
32	0x3e0f6f57	0.14007317
33	0x3e928cd3	0.28623065
34	0xbd8f5c09	-0.06999976
35	0xbe0b402f	-0.13598703
36	0x3e946fe7	0.28991625
37	0x3ee9366f	0.45549342
38	0x3e9bab7f	0.3040428
39	0x3f03164c	0.512059
40	0x3d2c5143	0.042069685
41	0x3ee9bb38	0.4565065
42	0x3f006d4d	0.5016678
43	0xbe5be271	-0.214731
44	0x3e51987a	0.20468321
45	0xbda1e784	-0.07905486
46	0x3e7d1994	0.24716789
47	0x3ed11052	0.40832764
48	0x3e68cedc	0.2273516
49	0xbec431cf	-0.3831925
50	0x3d3d5631	0.046224777
51	0x3eb3e03f	0.35132024
52	0x3cbc233b	0.022966018
53	0xbd99b06e	-0.075043544
54	0xbdf94dcf	-0.12173044
55	0xbd7878b7	-0.060661998
56	0xbe18513a	-0.14874735
57	0xbf044fe1	-0.51684386
58	0x3d6d3f96	0.05792197
59	0x3e2c3e38	0.1682061
60	0x3e1f5e97	0.15563427
61	0x3ed7c3c9	0.4214156
62	0xbec437c2	-0.3832379
63	0xbeb52d6e	-0.35386223
64	0x3ca10aca	0.019658465
65	0xbf6010aa	-0.8752543
66	0x3e45dae3	0.1932178
67	0x3e54f488	0.20796406
68	0xbe03bec2	-0.12865737
69	0xbfafbcae	-1.3729455
70	0xbefd47e3	-0.49468908
71	0x3d934c9a	0.07192345
72	0x3e2d6b1a	0.16935387
73	0x3f1e8c4f	0.61932844
74	0x3bcf2576	0.0063216044
75	0x3f325f7a	0.69676936
76	0xbe9d7f94	-0.30761397
77	0xbe0b1d07	-0.13585292
78	0x3d12e41f	0.035862084
79	0x3d4ef9af	0.050531086
80	0xbde7210c	-0.112856
81	0x3ed9585b	0.42450222
82	0xbe88579d	-0.26629344
83	0x3e113221	0.14179279
84	0xbee89251	-0.4542413
85	0xbef03835	-0.46917883
86	0xbdff91b1	-0.1247896
87	0x3e4cca5d	0.1999907
88	0xbb8b670f	-0.004254229
89	0x3eb3b722	0.35100657
90	0x3eb5c6a6	0.3550312
91	0x3e22db6d	0.15904017
92	0x3e96b961	0.29438308
93	0xbe947964	-0.28998864
94	0xbd0bd9f5	-0.034143407
95	0xbe4bd716	-0.19906268
96	0x3b80b962	0.0039283494
97	0x3e9f030c	0.31057012
98	0xbd82ed9f	-0.06392979
99	0xbef858c6	-0.4850523
100	0x3e9b7df1	0.30369523
101	0x3e8f48ca	0.2798522
102	0xbd387bd5	-0.04503997
103	0x3ef12999	0.4710205
104	0xbecb2340	-0.3967533
105	0xbed07521	-0.40714362
106	0x3ee1e446	0.4411947
107	0x3e17095c	0.14749664
108	0x3d42e0c3	0.04757763
109	0xbee0a77e	-0.43877786
110	0x3dbfb5ae	0.093608245
111	0x3f16fc22	0.58978474
112	0xbe19d5a1	-0.15022899
113	0x3fd0d6bf	1.6315535
114	0x3e17e4cc	0.14833373
115	0xbf09a867	-0.53772587
116	0x3db57ec4	0.08862069
117	0x3eb96d65	0.36216274
118	0xbe3b2399	-0.18275298
119	0x3f2c9f8e	0.6743096
120	0x3f1c4b89	0.6105276
121	0x3ed77a40	0.42085457
122	0xbe6caf06	-0.23113641
123	0x3f273f46	0.6533092
124	0xbe099bd3	-0.13438348
125	0x3f6769d9	0.90395886
126	0x3c3c86f3	0.011506784
127	0xbeca1205	-0.39466873
128	0x3eed900e	0.46398968
129	0x3e4d2992	0.20035389
130	0x3af69c6b	0.0018814927
131	0xbf4308c4	-0.7618525
132	0x3eaafa28	0.3339398
133	0xbeefe918	-0.46857524
134	0xbec3d364	-0.38247216
135	0xbebb43e8	-0.36575246
136	0xbeb675f2	-0.3563686
137	0x3ebb1b06	0.36544055
138	0x3d88e57a	0.06684394
139	0xbf17ce8c	-0.5929954
140	0xbe0ac078	-0.13549984
141	0xbf027af1	-0.50968844
142	0x3ea01ef0	0.31273603
143	0xbed4a841	-0.41534618
144	0x3d6a5e39	0.057218764
145	0xbea6e966	-0.32599944
146	0x3dfda403	0.123847984
147	0x3f31f288	0.695107
148	0xbe55eafb	-0.20890419
149	0x3ed1a02e	0.4094252
150	0xbd6b20cd	-0.05740433
151	0x3ed4a0c1	0.41528895
152	0x3e8918b8	0.2677667
153	0x3dc1d7e8	0.09465009
154	0x3f081214	0.53152585
155	0x3de66f75	0.112517275
156	0xbeccf3fe	-0.400299
157	0xbf89f4c3	-1.077782
158	0x3d7e5410	0.062091887
159	0x3e59b59d	0.21260686
160	0x3ecbdecc	0.39818418
161	0x3f24a22c	0.64309955
162	0x3f80286e	1.0012338
163	0x3ec38473	0.38186988
164	0x3b77d4a6	0.0037815957
165	0xbf7a5f88	-0.9780202
166	0xbddca7ac	-0.10774168
167	0x3bba70a8	0.005689699
168	0x3f3f33c8	0.74688387
169	0xbf2ec332	-0.68266594
170	0x3f7c3007	0.98510784
171	0x3e4226c8	0.18960106
172	0xbd5b161b	-0.05348788
173	0x3f2c8d66	0.67403257
174	0x3ebbb981	0.36664966
175	0x3f68e9d5	0.909818
176	0xbe596cfc	-0.2123298
177	0xbe52efb8	-0.20599258
178	0x3ea23111	0.3167806
179	0x3e2dc433	0.16969375
180	0x3ea36df3	0.31919822
181	0x3f325a0c	0.6966865
182	0xbe59deff	-0.21276473
183	0x3f092f02	0.53587353
184	0xbe8f7a74	-0.28023112
185	0xbec7efb5	-0.3905007
186	0x3d2521e5	0.040315527
187	0x3dd280b2	0.10278453
188	0x3e6a24d1	0.22865607
189	0x3ee405ef	0.44535777
190	0x3e69419a	0.22778931
191	0x3f088c0f	0.5333871
192	0x3efd9c51	0.49533322
193	0xbedf2f35	-0.43590704
194	0xbd0ca02f	-0.03433245
195	0x3d1a6fcb	0.03770427
196	0x3e5ec2f5	0.21754058
197	0x3f61d58a	0.8821646
198	0x3edb7bee	0.42867988
199	0xbf0fd279	-0.5618053

lstm.weight_hh_l0 f4 [100, 25]
0	0x3e71ab1e	0.23600432
1	0x3d9bd898	0.07609671
2	0xbe470252	-0.19434479
3	0x3ca0aca4	0.019613571
4	0xbe224f36	-0.15850529
5	0x3dad19cb	0.08452185
6	0x3d5c87ca	0.053840436
7	0xbdc1d96c	-0.09465298
8	0xbe581e00	-0.21105194
9	0xbef24a98	-0.47322536
10	0x3e6351de	0.22199199
11	0xbde3daa6	-0.11125688
12	0x3d1a16cb	0.037619393
13	0x3e277f65	0.16357191
14	0x3c0221e4	0.0079426505
15	0xbdf18799	-0.11793441
16	0x3e33b6be	0.1755018
17	0xbe8a9586	-0.27067202
18	0x3deb90d1	0.11502231
19	0x3d94c208	0.07263571
20	0xbc9561e8	-0.018235162
21	0xbaab4b65	-0.0013068734
22	0x3d59a49b	0.053135496
23	0xbbbcb67a	-0.0057590576
24	0xbdfcc533	-0.123423
25	0x3d060fea	0.03273002
26	0x3e248b94	0.1606887
27	0x3dd7ca7e	0.10536669
28	0x3f17e907	0.59339947
29	0x3e55a2c4	0.20862871
30	0x3c87bdf3	0.016570067
31	0xbf30d8e3	-0.6908094
32	0x3f85628d	1.04207
33	0xbd3b3a08	-0.04570964
34	0xc02fbf24	-2.7460413
35	0xbe7f9ced	-0.24962206
36	0xbe1b6684	-0.15175825
37	0xbda67a46	-0.081287906
38	0x3c5fe1d6	0.013664683
39	0x3e69c921	0.22830631
40	0xbdd6a133	-0.10479965
41	0xbd63411b	-0.05548201
42	0xbe46b16a	-0.19403616
43	0xbe6f5d63	-0.23375468
44	0x3cdcb9f1	0.026944133
45	0x3e66fb8c	0.22556895
46	0xbcb66eca	-0.022269625
47	0x3dd3b6cf	0.10337602
48	0xbe8f74b2	-0.2801872
49	0xbe5b093e	-0.21390244
50	0x3ecefe04	0.40428174
51	0x3f2e429c	0.6807039
52	0x3e3acd1a	0.18242303
53	0xbea0234d	-0.31276932
54	0xbda001bd	-0.078128316
55	0x3d19f95d	0.037591327
56	0xbed4f084	-0.4158975
57	0x3e98171d	0.29705134
58	0x3d1749a7	0.036935475
59	0xbf2efb3e	-0.68352115
60	0xbe85742d	-0.26065198
61	0x3cb6ace8	0.022299245
62	0xbd289467	-0.041157153
63	0x3d67a442	0.056553133
64	0xbe81b1b5	-0.25330892
65	0xbe1f9e98	-0.15587842
66	0xbe2b66d5	-0.16738446
67	0x3ed64211	0.4184728
68	0x3e3a1fe5	0.1817623
69	0xbc9437dd	-0.018093044
70	0xbe57ca52	-0.21073273
71	0xbd842927	-0.06453162
72	0xbe7e6211	-0.24842097
73	0x3e8c81b1	0.27442697
74	0x3d07067d	0.032965172
75	0x3e629818	0.22128332
76	0x3ef8f697	0.48625633
77	0xbec0986c	-0.3761629
78	0xbe8f8867	-0.28033754
79	0xbe849681	-0.25896075
80	0x3d96b873	0.073594
81	0x3e8bb602	0.27287298
82	0xbdba7ad8	-0.09105462
83	0xbcfe96e7	-0.031077815
84	0x3f19b3b4	0.6003983
85	0xbf43f87c	-0.7655103
86	0x3cab80f4	0.020935513
87	0x3e070dba	0.1318883
88	0xbd927fac	-0.07153258
89	0xbf06a8bc	-0.5260122
90	0x3d25a509	0.040440593
91	0xbe424f92	-0.18975666
92	0x3e8cf699	0.2753189
93	0x3db3a470	0.08771598
94	0xbe8ef4c0	-0.27921104
95	0xbe7996c3	-0.24373917
96	0xbe104bde	-0.14091441
97	0x3da4963a	0.08036466
98	0x3edc9a3c	0.4308642
99	0xbead9c22	-0.33908182
100	0xbc3c14df	-0.011479585
101	0x3dc1787c	0.09446809
102	0xbeebc126	-0.46045798
103	0x3d3279f0	0.04357332
104	0xbd2fd644	-0.04292895
105	0x3dd2f12e	0.102999076
106	0xbe2bc3a2	-0.16773847
107	0x3da17830	0.07884252
108	0xbe083b25	-0.13303812
109	0xbf59927e	-0.84989154
110	0xbd8e4d5d	-0.069483496
111	0xba9a6c4c	-0.0011781543
112	0xbdd33bbf	-0.1031413
113	0xbe1a257a	-0.15053359
114	0xbdfbef91	-0.12301553
115	0xbd2c4d79	-0.04206607
116	0xbd839122	-0.06424166
117	0xbea026fc	-0.31279743
118	0x3de8fe59	0.11376638
119	0x3d373c35	0.044735152
120	0xbc3f3b72	-0.011671888
121	0xbd41c942	-0.047311075
122	0x3cccd69c	0.025004677
123	0x3e54634b	0.20741002
124	0xbeb5d873	-0.355167
125	0xbc923f86	-0.017852556
126	0x383a90bc	4.448065e-05
127	0x3e114878	0.14187801
128	0x3cd451fb	0.025917998
129	0xbe51e965	-0.20499189
130	0x3e3c4066	0.18383941
131	0xbcae1609	-0.021250742
132	0x3ce4fc3b	0.027952304
133	0x3da689e2	0.08131768
134	0xbec4d6f1	-0.38445237
135	0xbd3582be	-0.04431414
136	0xbe0f9e37	-0.14025198
137	0x3c56f624	0.013120208
138	0x3e149ded	0.14513369
139	0x3e2287e6	0.15872154
140	0x3d0bbe09	0.03411678
141	0xbd4d533a	-0.0501282
142	0xbe481c20	-0.19541979
143	0x3e1e3d01	0.15452959
144	0x3950e418	0.00019921397
145	0xbe43b85b	-0.19113295
146	0x3db13ba6	0.08653955
147	0x3e43b5f5	0.1911238
148	0x3e6d2311	0.23157908
149	0xbdd8f4a7	-0.10593539
150	0x3ec43fa9	0.3832982
151	0x3e5da6c1	0.21645643
152	0xbf99fa67	-1.2029542
153	0xc00a67a6	-2.1625762
154	0x3d573482	0.05254031
155	0x3e06e89e	0.13174674
156	0xbec54c55	-0.385348
157	0x3f4c8786	0.7989429
158	0xbe62d734	-0.22152406
159	0xbfd0bd3b	-1.6307749
160	0xbe9e7e6f	-0.30955836
161	0x3cb5bfd0	0.02218619
162	0xbdee3a22	-0.11632182
163	0x3e70ab0a	0.23502746
164	0x3e53cf62	0.20684579
165	0xbd2dc7a0	-0.042426705
166	0xbe85cb32	-0.26131588
167	0x3ebd385d	0.36957064
168	0x3d04f7ea	0.03246299
169	0xbf092f2f	-0.5358762
170	0xbeafc405	-0.3432924
171	0x3f94f2b9	1.1636573
172	0x3dd765a9	0.10517437
173	0x3ea57d1f	0.32322022
174	0xbf1a4061	-0.60254484
175	0x3dd073b4	0.101783186
176	0x3ee031d8	0.43788028
177	0xbcb21511	-0.02173856
178	0x3e0d0f56	0.13775381
179	0x3e48a234	0.19593126
180	0x3ca45e54	0.02006451
181	0x3ea027b6	0.31280297
182	0x3e9e0c84	0.30868924
183	0xbe497afe	-0.19675824
184	0xbe24bd83	-0.16087918
185	0x3bbcbb70	0.005759649
186	0x3d40eb14	0.047099188
187	0xbe922ed5	-0.28551355
188	0x3e79d585	0.24397857
189	0xbb8408cd	-0.0040293694
190	0x3e8bc83d	0.27301207
191	0x3d1c2625	0.038122315
192	0x3e590d84	0.21196562
193	0x3d99f713	0.07517829
194	0x3df99bc8	0.12187916
195	0xbcc00df5	-0.023444155
196	0xbce1c729	-0.027560787
197	0x3ea6ed9a	0.3260315
198	0xbe016586	-0.12636384
199	0xbe296f1c	-0.16546291
200	0x3c2be25a	0.010490978
201	0xbe380d59	-0.17973842
202	0xbd49fdf6	-0.04931446
203	0xbb7f6ca9	-0.0038974679
204	0xbda8f42c	-0.08249697
205	0x3e4a8ad9	0.19779529
206	0xbd152f68	-0.036422163
207	0x3f0455f8	0.5169368
208	0xbd8ba541	-0.06818629
209	0xbfa339fa	-1.2752068
210	0x3f048f5c	0.5178125
211	0x3d77e8b2	0.06052465
212	0x3d8df4eb	0.0693148
213	0x3e067deb	0.13133971
214	0x3e553a4a	0.20823017
215	0xbc3dd5f0	-0.011586651
216	0x3e09ef79	0.13470258
217	0xbe6b73bd	-0.2299337
218	0x3d0ff066	0.03514137
219	0xbbe58ac2	-0.0070050666
220	0x3ed6dcf5	0.41965452
221	0xbe92119e	-0.28529066
222	0x3e38b246	0.18036756
223	0x3db45cf1	0.0880679
224	0xbeddb311	-0.4330068
225	0x3d7b5be6	0.061366938
226	0x3f286e45	0.6579326
227	0xbf71a028	-0.94385004
228	0x3e58a52c	0.21156758
229	0xbe81d7dd	-0.25360003
230	0x3db516e7	0.08842259
231	0xbc9c68e6	-0.019092988
232	0x3e364e29	0.17803253
233	0xbed6820b	-0.4189609
234	0xbea566f7	-0.32305118
235	0x3fc34d32	1.5257933
236	0xbd91944c	-0.071083635
237	0xbead9731	-0.33904412
238	0x3ed7bbe5	0.4213554
239	0x3e6bb42b	0.23017947
240	0xbe77080c	-0.24124163
241	0xbd6a4e7f	-0.057203766
242	0xbc197d32	-0.009368228
243	0xbe868553	-0.26273593
244	0xbe9eb846	-0.30999964
245	0xbd35224d	-0.044222165
246	0x3e5099f0	0.20371222
247	0x3ee2e4e8	0.44315267
248	0x3e15a963	0.14615397
249	0xbef164fa	-0.47147352
250	0x3ea214f1	0.31656602
251	0x3e8998ec	0.26874483
252	0xbed97984	-0.42475522
253	0xbf2f1a4a	-0.6839949
254	0xbe00cf71	-0.12579133
255	0xbe1d97a1	-0.15389873

lstm.bias_ih_l0 f4 [100]
0	0x3dd6fc5b	0.10497352
1	0x3e19ef6e	0.15032741
2	0x3ef2ff2b	0.47460303
3	0x3f019088	0.5061116
4	0x3dd18502	0.10230447
5	0x3e1e24e5	0.15443762
6	0x3f6c2fe6	0.9226059
7	0x3d0e3f01	0.034728054
8	0x3e5c3830	0.21505809
9	0x3e9be8e1	0.3045111
10	0x3f201364	0.6252959
11	0x3e77a786	0.24184999
12	0x3ea26979	0.31721094
13	0x3da0780c	0.07835397
14	0x3eaaf744	0.33391774
15	0x3e4476c4	0.1918593
16	0x3e42fea2	0.19042447
17	0x3e722799	0.23647918
18	0x3dae71bb	0.08517786
19	0x3e0cf922	0.13766912
20	0xbdfd8579	-0.123789735
21	0x3e088fbb	0.13336079
22	0x3e39a788	0.18130314
23	0x3ea9520e	0.33070415
24	0x3e933f6b	0.28759322
25	0x3e7c2178	0.24622142
26	0xbca03803	-0.019557958
27	0x3df4a2cd	0.11945114
28	0x3e1ee5e5	0.15517385
29	0xbe5089ea	-0.2036511
30	0x3e5d0671	0.21584488
31	0xbea20f67	-0.31652376
32	0xbd5ea162	-0.054353125
33	0x3ec866fc	0.3914107
34	0xbe55528b	-0.20832269
35	0x3d52e6b1	0.051489536
36	0xbdb37c07	-0.08763891
37	0xbe4e4bde	-0.20146129
38	0xbe9c1301	-0.3048325
39	0x3ec5cf78	0.3863485
40	0xbe7151ae	-0.23566315
41	0xbd9afb40	-0.075674534
42	0x3ca5eadd	0.020253593
43	0xbd144c3e	-0.036205523
44	0xbdb95709	-0.09049804
45	0x3e40fdca	0.18846813
46	0x3d46d667	0.048544314
47	0xbe20f504	-0.15718466
48	0x3e07b0c4	0.13251024
49	0xbe4f5a36	-0.20249256
50	0x3d0d40f8	0.034485787
51	0xbdb9eabd	-0.09077976
52	0x3c7c2f87	0.015392191
53	0xbe2c0c9e	-0.16801688
54	0x3d6117f8	0.0549545
55	0x3dc607f4	0.09669486
56	0xbdf724ff	-0.12067603
57	0x3e392d8e	0.18083784
58	0xbd9cd8d1	-0.07658542
59	0xbe0af7e3	-0.13571124
60	0xbea0fdf6	-0.31443757
61	0x3d68ee5e	0.05686795
62	0xbe7648ee	-0.24051258
63	0x3df15d93	0.11785426
64	0xbdc23e4e	-0.0948454
65	0x3cee85b1	0.029116483
66	0xbdddac9e	-0.1082394
67	0x3e1d2d79	0.15349378
68	0x3dd1aa9b	0.102376185
69	0xbdd8e91a	-0.105913356
70	0x3dfda379	0.123846956
71	0xbe2c3460	-0.16816854
72	0xbe0bc817	-0.13650547
73	0xbca7feeb	-0.020507297
74	0x3cb51f9d	0.022109801
75	0x3c2ad9b4	0.010427881
76	0x3ce8dd8b	0.028425952
77	0x3eb56353	0.3542734
78	0x3e686c91	0.22697665
79	0x3da3fa48	0.08006722
80	0x3e6b5426	0.22981319
81	0x3f8138e3	1.0095485
82	0xbda70c18	-0.081566036
83	0x3e014818	0.12625158
84	0x3f015199	0.50515133
85	0x3f312cd6	0.6920904
86	0x3e448722	0.19192174
87	0x3ed068d8	0.4070499
88	0xbdf0afcf	-0.11752283
89	0x3e4b2a28	0.198403
90	0x3eb98a1d	0.36238185
91	0x3e77e761	0.24209358
92	0x3d6320b7	0.05545112
93	0x3de4489b	0.11146661
94	0x3def6a57	0.116902046
95	0xbe07532e	-0.13215324
96	0x3cc7415d	0.02432316
97	0x3d1717d5	0.036887962
98	0x3dba3cf6	0.090936586
99	0x3ebc6bec	0.36801088

lstm.bias_hh_l0 f4 [100]
0	0x3e167d39	0.14696206
1	0x3dff493d	0.12465141
2	0x3f17c63b	0.5928685
3	0x3e9b8c81	0.30380633
4	0x3cd297fc	0.025707237
5	0x3e850d01	0.25986484
6	0x3f986f10	1.1908894
7	0x3e6799f7	0.22617327
8	0x3e3a3041	0.1818247
9	0x3ea887c4	0.3291608
10	0x3f15ab10	0.58464146
11	0x3b44fbb6	0.0030057258
12	0x3e861fce	0.2619614
13	0xbd7da210	-0.061922133
14	0x3e123abc	0.14280218
15	0x3d8b509e	0.06802486
16	0x3dc8282d	0.09773288
17	0x3d9ff1a9	0.07809765
18	0x3ea1037e	0.31447977
19	0xbd37fd13	-0.044919085
20	0x3dc0a687	0.094067626
21	0x3eab4593	0.33451518
22	0x3d3b233b	0.045687895
23	0x3e055f3d	0.13024612
24	0x3e9a0836	0.3008439
25	0x3e619500	0.22029495
26	0xbe1a7e0d	-0.15087147
27	0x3d5957c9	0.053062234
28	0x3e1cb248	0.15302384
29	0xbe1f130c	-0.1553461
30	0x3cc8cc26	0.024511408
31	0xbeab3c93	-0.33444652
32	0x3c334c02	0.010943415
33	0x3e39687b	0.18106262
34	0xbdf57bb3	-0.119864844
35	0xbe6dd648	-0.23226273
36	0x3d0a3e36	0.033750735
37	0xbe7d2374	-0.24720556
38	0xbdae6664	-0.08515623
39	0x3da00b9e	0.07814716
40	0x3bcc1eca	0.0062292563
41	0x3ce781c2	0.028260116
42	0xbda50697	-0.080578975
43	0xbd6ce257	-0.057833042
44	0xbe19bf86	-0.15014467
45	0x3e214523	0.1574903
46	0xbdffbb32	-0.124868765
47	0x3d084c9f	0.033276197
48	0x3d4351a5	0.047685284
49	0x3e07330e	0.1320307
50	0x3d371b9d	0.04470407
51	0x3d930360	0.07178378
52	0x3e0fd79b	0.1404709
53	0xbebc3f91	-0.36767247
54	0xbd0067e8	-0.031349093
55	0xbdba4ea0	-0.09097028
56	0xbd9c62fd	-0.07636068
57	0x3df45fdf	0.119323485
58	0xbda283c1	-0.07935286
59	0xbe66040c	-0.22462481
60	0xbd593c01	-0.05303574
61	0x3d7ce617	0.06174287
62	0x3d84e921	0.06489778
63	0x3d99403e	0.07482956
64	0xbd9ee901	-0.07759286
65	0x3d9a4ba4	0.075339586
66	0xbe16993f	-0.14706896
67	0x3e81fb59	0.25387076
68	0x3d986a13	0.07442107
69	0x3d16d43f	0.036823507
70	0xbd815e72	-0.06316842
71	0xbc04f653	-0.008115369
72	0x3dc2c348	0.09509903
73	0x3d2afa08	0.041742355
74	0x3dd9c6c9	0.106336184
75	0xbd4e609b	-0.0503851
76	0x3e198ac0	0.14994335
77	0x3ee75b33	0.45186767
78	0x3eaca89d	0.33722392
79	0x3dbf74f2	0.093484774
80	0xbd88bc86	-0.06676583
81	0x3f8fb7d1	1.1227971
82	0x3d4e50e7	0.050370123
83	0xbd0e17b5	-0.034690578
84	0x3efa7da5	0.48923984
85	0x3f28ab0f	0.65886015
86	0x3e033b8c	0.12815684
87	0x3f069cf3	0.52583236
88	0xbe52f501	-0.20601274
89	0x3ec99617	0.39372322
90	0x3ebf05da	0.37309152
91	0x3d3f1906	0.046654724
92	0x3df6f6e9	0.12058813
93	0x3dcc5a4a	0.09978159
94	0x3e0aa5a9	0.13539757
95	0x3db844ed	0.089975215
96	0x3e1656d0	0.14681554
97	0x3db4003c	0.08789107
98	0xbd394e4f	-0.045240697
99	0x3dc75154	0.09732309

lstm.weight_ih_l1 f4 [100, 25]
0	0x3e628962	0.2212272
1	0x3e62da43	0.22153573
2	0xbf5521f4	-0.83254933
3	0xbe2a162d	-0.16610022
4	0x3d0dcd04	0.034619346
5	0x3bb83427	0.0056214514
6	0xbea75f6c	-0.3268999
7	0x3ecc65db	0.3992146
8	0xbe29cd26	-0.16582164
9	0xbf35b92b	-0.7098567
10	0xbdef402c	-0.11682162
11	0xbc54ab05	-0.012980227
12	0xbd424e26	-0.04743781
13	0x3e653813	0.22384672
14	0xbcf2cd66	-0.029638957
15	0x3e588313	0.21143751
16	0x3ddb82bb	0.10718294
17	0x3e6259b8	0.22104537
18	0xbe35f718	-0.1777004
19	0x3e3dbfc4	0.18530184
20	0x3c98b580	0.018641233
21	0x3e420c48	0.18949997
22	0xbc2c8d57	-0.010531745
23	0xbd7f693e	-0.062356226
24	0x3dd331a0	0.103121996
25	0xbd416b36	-0.047221385
26	0x3df7e947	0.12105041
27	0x3e671456	0.22566351
28	0xbe236fc5	-0.15960605
29	0x3e0b6fee	0.13616917
30	0xbeaf19cc	-0.3419937
31	0xbf4528ef	-0.77015585
32	0x3e1bde2d	0.15221472
33	0xbe038195	-0.128424
34	0xbf41dd22	-0.75728047
35	0x3d9265ba	0.07148309
36	0xbe63fab6	-0.22263607
37	0xbe74fe94	-0.23925239
38	0x3e354636	0.17702565
39	0xbe8b412a	-0.27198154
40	0x3e32727e	0.17426488
41	0x3e6f232b	0.2335326
42	0x3e4d976f	0.20077299
43	0xbdfc5de8	-0.12322599
44	0x3e837ccc	0.2568115
45	0x3eb7617f	0.3581657
46	0x3da4037f	0.08008479
47	0xbdab3d03	-0.083612464
48	0xbe458607	-0.19289409
49	0xbe7ca4d8	-0.24672258
50	0xbda429cc	-0.080157846
51	0xbdf1c6c1	-0.118054874
52	0xbf29cc8c	-0.6632774
53	0xbe4d7608	-0.20064557
54	0xbd949ab9	-0.072560735
55	0xbde9b61a	-0.11411686
56	0xbd7a6de4	-0.061139956
57	0xbdc4706a	-0.09591754
58	0xbde08540	-0.109629154
59	0x3ecb7079	0.39734247
60	0x3c5cd59b	0.013478662
61	0x3d09ba30	0.033624828
62	0xbdfb4a90	-0.12270081
63	0xbe2970b9	-0.16546907
64	0xbdea6bc2	-0.114463344
65	0xbe169cfd	-0.14708324
66	0xbc54321f	-0.012951403
67	0xbe9a07c0	-0.30084038
68	0xbdc5e091	-0.09661973
69	0xbdb251d5	-0.087070145
70	0x3c17eec4	0.009273235
71	0xbd1cae08	-0.038251907
72	0x3ddb8da4	0.10720375
73	0x3d8c356b	0.06846126
74	0xbde8412c	-0.113405555
75	0x3cc9857a	0.02459978
76	0xbc9bee61	-0.019034566
77	0xbc9ddde9	-0.019270854
78	0xbde2608d	-0.11053572
79	0x3cfe7c98	0.03106527
80	0x3e82857d	0.25492468
81	0x3e63733d	0.22211929
82	0xbc425a5c	-0.011862364
83	0x3e567bca	0.2094566
84	0xbf01f7d8	-0.50768805
85	0x3f2f2451	0.6841479
86	0x3e071204	0.13190466
87	0x3ec5c2b0	0.38625097
88	0xbe5138fa	-0.20431891
89	0x3ea22e8f	0.31676146
90	0xbd3687e2	-0.04456318
91	0xbeb924ec	-0.36160982
92	0x3e0a30bf	0.13495158
93	0x3e71abc2	0.23600677
94	0xbe8f614c	-0.2800392
95	0xbe68a759	-0.22720088
96	0xbe6e61c4	-0.23279482
97	0x3dd80f64	0.105498105
98	0x3e789e95	0.24279244
99	0x3d16aa0c	0.036783263
100	0x3e5a20ca	0.2130157
101	0x3e38abc3	0.18034272
102	0xbecf3689	-0.40471295
103	0x3e3c1e2f	0.18370889
104	0x3d605794	0.05477102
105	0x3d422fce	0.04740887
106	0xbe4358ab	-0.19076793
107	0xbdbf4293	-0.0933887
108	0xbd85685b	-0.06514045
109	0x3ce356a0	0.027751267
110	0x3e06744f	0.13130306
111	0xbe2b5d97	-0.1673492
112	0xbe3514ad	-0.17683668
113	0xbd156118	-0.03646955
114	0x3e158002	0.14599612
115	0x3e18ff9c	0.14941257
116	0x3bbd7803	0.005782129
117	0xbc5ca5fb	-0.013467307
118	0xbe5666cb	-0.2093765
119	0xbdbf7fbb	-0.093505345
120	0xbe540f28	-0.20708907
121	0xbdad0890	-0.08448899
122	0xbd2ff79f	-0.04296076
123	0x3e0a5ee8	0.13512766
124	0xbcf1c8c2	-0.029514674
125	0xbe738073	-0.23779468
126	0xbdfe8657	-0.12427967
127	0x3e112a80	0.14176369
128	0x3d9f1ffa	0.07769771
129	0x3dfb48e8	0.12269765
130	0xbe3f7cf1	-0.18700005
131	0xbd21e4dd	-0.0395249
132	0xbdf24efb	-0.118314706
133	0xbecaea14	-0.39631712
134	0xbf0d992c	-0.55311847
135	0x3efa9f27	0.4894955
136	0xbe1840d3	-0.14868478
137	0xbeae2464	-0.3401214
138	0x3e299ca9	0.16563667
139	0xbdc9971b	-0.09843274
140	0x3c48ede3	0.012263748
141	0x3da34399	0.079718776
142	0x3c12c4ff	0.0089581
143	0xbceedca2	-0.02915794
144	0x3e6d55cf	0.23177265
145	0x3ee96b45	0.45589653
146	0xbf018e54	-0.506078
147	0xbe8c7c91	-0.27438787
148	0xbe2d2252	-0.16907623
149	0x3e0b6ad4	0.1361497
150	0xbe1f9cf6	-0.1558722
151	0x3e0adb4e	0.1356022
152	0xbe716cca	-0.23576656
153	0xbd9aa676	-0.07551281
154	0x3dc9e933	0.09858932
155	0xbd99c996	-0.075091526
156	0x3e9e008b	0.3085979
157	0xbe404c35	-0.1877907
158	0x3e774a4f	0.2414944
159	0xbe9d9f55	-0.30785623
160	0x3e5b2da7	0.21404134
161	0x3af48b6c	0.0018657274
162	0xbdbc2f0d	-0.09188662
163	0xbdbeb2ad	-0.093114235
164	0x3d9c26e0	0.07624602
165	0xbc97a17c	-0.018509619
166	0x3d9e3a3c	0.07725951
167	0xbe855e6f	-0.2604861
168	0x3e24adcf	0.16081928
169	0xbe12fcca	-0.14354244
170	0xba4de5e7	-0.00078543875
171	0xbe43146a	-0.19050756
172	0x3cea8e09	0.02863218
173	0x3e7e050c	0.24806613
174	0xbe042960	-0.12906408
175	0x3d0380f2	0.032105394
176	0x3dd3995c	0.10331985
177	0xbf447338	-0.7673831
178	0x3aa7fe6c	0.0012816912
179	0x3ca92909	0.02064945
180	0x3e01a8f5	0.12662108
181	0x3eabbd81	0.33543018
182	0xbd805b58	-0.062674224
183	0x3e8f4f06	0.27989978
184	0x3edbeb59	0.42952994
185	0x3c2be98e	0.0104926955
186	0x3b46a496	0.0030310503
187	0x3c482384	0.012215499
188	0xbc866303	-0.016404634
189	0x3d93bf5b	0.072142325
190	0x3c946a7a	0.018117178
191	0xbcc95c6e	-0.024580207
192	0xbe69179d	-0.22762914
193	0xbdc8500f	-0.09780895
194	0x3e25dece	0.16198274
195	0xbcdbd277	-0.026833756
196	0x3e84cd17	0.2593772
197	0xbe5fdd77	-0.21861826
198	0x3a73c4c4	0.0009299035
199	0x3eb7f486	0.35928744
200	0x3e8ddbcc	0.27706754
201	0x3dfd336a	0.12363322
202	0xbf592c92	-0.84833634
203	0x3de55e35	0.11199609
204	0xbe2402e2	-0.16016725
205	0x3daacd06	0.08339886
206	0xbe509514	-0.20369369
207	0xbcea9fce	-0.028640654
208	0xbe846e15	-0.25865236
209	0xbe72a5d0	-0.23696065
210	0x3d32f418	0.043689817
211	0xbc0d3e9a	-0.008620882
212	0xbe871932	-0.2638641
213	0x3c74e4c8	0.014947124
214	0x3e2a036f	0.16602872
215	0xbe0dc1d8	-0.13843477
216	0xbe1ce523	-0.15321784
217	0xbdb561aa	-0.088565186
218	0x3d9a9d6d	0.07549558
219	0xbcf27681	-0.029597523
220	0xbe5e9204	-0.21735388
221	0x3e643a37	0.22287832
222	0x3cf12430	0.0294362
223	0x3d719a38	0.058984965
224	0x3e126204	0.14295202
225	0xbdf91c39	-0.12163586
226	0xbe307d13	-0.17235212
227	0xbf2f0676	-0.68369234
228	0xbb529b1c	-0.003213591
229	0x3e4b47d7	0.19851623
230	0x3cd667fe	0.026172634
231	0xbef839f2	-0.4848171
232	0x3eee4145	0.46534172
233	0xbdad6196	-0.08465879
234	0xbf2ff245	-0.6872905
235	0xbcc1d261	-0.023659887
236	0x3d0b7bcc	0.03405361
237	0xbda9415c	-0.082644194
238	0x3de2f095	0.11081044
239	0xbd989ae6	-0.074514195
240	0x3caa2579	0.020769821
241	0xbce6eaff	-0.028188227
242	0x3e02bade	0.12766597
243	0xbe4c8889	-0.19973959
244	0xbdf376f3	-0.11887922
245	0x3e23772d	0.1596343
246	0x3d359c58	0.044338554
247	0xbe0896fc	-0.13338846
248	0x3d141956	0.036156975
249	0xbe991a2b	-0.29902777
250	0x3eb59ff3	0.35473594
251	0x3ef8ed57	0.48618576
252	0xbf6f0331	-0.93364245
253	0x3d9ce2ac	0.07660422
254	0xbe8e896b	-0.27839217
255	0x3e42f21d	0.19037671

lstm.weight_hh_l1 f4 [100, 25]
0	0xbc9d0180	-0.019165754
1	0xbdc175b5	-0.09446279
2	0x3daa8ac6	0.0832725
3	0xbea08e13	-0.31358394
4	0x3e09ceac	0.13457745
5	0xbe206128	-0.15662062
6	0x3e5ac7fb	0.21365349
7	0x3d441864	0.047874823
8	0x3e8dce0d	0.27696267
9	0x3db6b98b	0.08922108
10	0xbe037226	-0.12836513
11	0x3dc216d3	0.094770096
12	0x3ec7d6d9	0.39031103
13	0xbe8680c2	-0.2627011
14	0xbd4cf17e	-0.050034992
15	0x3d8ddfc8	0.069274485
16	0x3daf6edb	0.08566066
17	0x3dd764eb	0.105172954
18	0xbdd339be	-0.10313748
19	0x3def41d1	0.11682475
20	0xbdd19d82	-0.1023512
21	0x3e35b2cb	0.17743985
22	0xbe1e2076	-0.1544207
23	0x3e5a0fea	0.21295133
24	0x3e7028dc	0.23453087
25	0x3e622e12	0.22087887
26	0xbd3a8a2b	-0.045541923
27	0x3e3fb1c7	0.1872016
28	0xbef54608	-0.47904992
29	0x3e45ec9b	0.19328539
30	0xbde0d51b	-0.10978147
31	0x3db80a8a	0.08986385
32	0x3d4dfbd4	0.05028899
33	0x3e8b6491	0.27225164
34	0x3e0bfed5	0.1367143
35	0xbd8548af	-0.06508004
36	0x3e9db255	0.3080012
37	0x3e11ca71	0.14237382
38	0x39997f59	0.00029277315
39	0x3ea11fac	0.31469476
40	0xbe1dcd7b	-0.15410416
41	0xbda668f1	-0.08125485
42	0x3d401cec	0.046902582
43	0xbea9c260	-0.3315611
44	0x3d4fe848	0.05075863
45	0xbea6c1da	-0.32569772
46	0xbe07f4f8	-0.13277042
47	0xbd9c5bfc	-0.07634732
48	0xbe3ed0f7	-0.18634401
49	0x3ee41d6e	0.44553703
50	0xbe27c1c0	-0.16382504
51	0xbe03db46	-0.12876615
52	0x3e098da5	0.1343294
53	0xbe03e458	-0.12880075
54	0x3d856842	0.06514026
55	0x3defe0fe	0.11712836
56	0xbd9fb265	-0.07797698
57	0xbe4be99d	-0.19913335
58	0x3d2735a3	0.040822636
59	0x3e4e0979	0.20120801
60	0x3e3e9f7e	0.18615529
61	0x3e2a4a89	0.16629995
62	0x3dc7550f	0.097330205
63	0xbe3f49e8	-0.18680537
64	0x3e0c5c02	0.13706973
65	0xbcd9ddd0	-0.026595026
66	0x3b8bc10d	0.004264957
67	0xbe21793c	-0.15768903
68	0xbdf61902	-0.120164886
69	0x3dbb9aed	0.09160409
70	0xbe02bdd6	-0.12767729
71	0xbe9411aa	-0.28919727
72	0x3dfd310e	0.12362872
73	0xbc95edf2	-0.018301938
74	0x3e484f97	0.19561611
75	0xbe061d78	-0.13097179
76	0xbe90923d	-0.2823657
77	0xbd8db7c7	-0.06919818
78	0x3df7c755	0.120985664
79	0xbcfdbf8b	-0.030975124
80	0xbd8fff03	-0.070310615
81	0x3cf6041e	0.03003126
82	0xbe1b8dd6	-0.15190825
83	0x3c467cba	0.012114698
84	0xbdc625a6	-0.096751496
85	0x3e6af83d	0.22946258
86	0xbe1d2b35	-0.15348513
87	0x3e67ed55	0.22649129
88	0xbd99e143	-0.075136684
89	0xbcef1bd3	-0.029188072
90	0x3d371ee9	0.044707213
91	0xbe54785a	-0.20749035
92	0xbd0a6c09	-0.033794437
93	0x3c34dfb1	0.01103966
94	0xbe0e4db7	-0.13896833
95	0x3e905f3c	0.28197658
96	0x3d9ab54a	0.075541094
97	0xbd8d7799	-0.06907577
98	0x3e82a398	0.25515437
99	0x3e88dd0b	0.26731142
100	0x3c3e1fc3	0.011604252
101	0x3e502e2e	0.20330116
102	0xbdb3fe53	-0.08788743
103	0xbe93c289	-0.28859356
104	0xbdefdafc	-0.1171169
105	0xbe0a90cc	-0.13531798
106	0x3e2985b9	0.16554917
107	0xbbff6df6	-0.007795091
108	0xbe208941	-0.15677358
109	0xbe521822	-0.20517018
110	0x3d365f9e	0.04452478
111	0x3e437a94	0.19089729
112	0xbdef2f8d	-0.116789915
113	0x3e209195	0.15680535
114	0x3a9e4507	0.0012075015
115	0xbd1a6c3d	-0.03770088
116	0x3e4eff02	0.20214465
117	0x3d818adf	0.06325316
118	0x3e224fed	0.15850802
119	0x3e119ca2	0.14219907
120	0x3dff93ee	0.12479387
121	0x3e5b49a5	0.21414812
122	0xbe433455	-0.19062932
123	0x3d8fc0b0	0.07019174
124	0xbd83d39e	-0.06436847
125	0x3eaf4fb2	0.3424049
126	0x3ed4c8e5	0.4155952
127	0x3e762e2f	0.24041055
128	0xbeb31527	-0.34977075
129	0x3d810e84	0.06301597
130	0xbd9ed917	-0.0775625
131	0xbb215362	-0.002461635
132	0x3ed66226	0.41871756
133	0x3cb9f343	0.022699004
134	0x3c8e7639	0.017390357
135	0xbe0307d8	-0.12795961
136	0x3e97157c	0.2950858
137	0xbe9a4ce4	-0.30136788
138	0xbeb1b4cd	-0.34708253
139	0x3f087db9	0.5331684
140	0xbe0ebefb	-0.13940041
141	0x3e718278	0.23584926
142	0xbdd7b6b1	-0.105328925
143	0xbec8666e	-0.39140648
144	0x3c946737	0.018115623
145	0x3e34fb79	0.17674054
146	0xbe1eb45b	-0.15498488
147	0x3e21132c	0.1572997
148	0xbbe6ae15	-0.007039795
149	0xbed2fccd	-0.41208497
150	0x3d5a554d	0.053304005
151	0x3d4fb31b	0.050707918
152	0xbd88db5a	-0.06682463
153	0xbdc7f31f	-0.097631685
154	0xbdf16fbe	-0.11788891
155	0x3d4e8f02	0.05042935
156	0x3e12e353	0.1434453
157	0xbda14bbe	-0.07875775
158	0x3d3596d7	0.044333305
159	0xbdc17c91	-0.09447587
160	0xbde4af8e	-0.11166297
161	0x3dbfa129	0.09356911
162	0x3bd7e792	0.0065888846
163	0x3d429425	0.047504563
164	0xbcef5bc1	-0.029218556
165	0xbcc5895d	-0.024113351
166	0xbcf915d6	-0.03040592
167	0x3daabe34	0.083370596
168	0xbd17c39b	-0.03705178
169	0xbe2cea80	-0.1688633
170	0x3d6f2268	0.05838242
171	0x3e53840d	0.20655842
172	0xbd720bc9	-0.05909327
173	0x3d189770	0.037253797
174	0x3d3155e5	0.043294806
175	0xbda9f964	-0.082995206
176	0x3d42287a	0.047401883
177	0xbd7dd2bd	-0.061968554
178	0xbe85473e	-0.26030916
179	0x3ea05f1a	0.31322557
180	0x3e54f350	0.20795941
181	0x3e3d585c	0.18490738
182	0x3e5b4a5b	0.21415083
183	0x3e7d93e9	0.24763454
184	0xbd4d7d0b	-0.05016808
185	0x3d4979dd	0.049188484
186	0xbca8f755	-0.02062575
187	0x3e9e014b	0.3086036
188	0x3e5ae3fe	0.21376035
189	0xbe401d7d	-0.18761249
190	0x3e487844	0.19577128
191	0x3dbdc4aa	0.09266026
192	0xbe5274ae	-0.20552322
193	0xbbf4c574	-0.0074698273
194	0xbc6534eb	-0.013989667
195	0xbe8a5c3e	-0.270235
196	0x3ea1c428	0.31594968
197	0xbe2af7d8	-0.16696107
198	0x3e4f2263	0.20227961
199	0x3caf7380	0.02141738
200	0xbd3ec9ff	-0.046579357
201	0x3d9ac4c9	0.07557065
202	0x3e1767cc	0.14785689
203	0xbef65975	-0.48115125
204	0x3de3fd07	0.111322455
205	0x3c9b5ddc	0.018965654
206	0xbdd69da7	-0.104792885
207	0x3c83e3f5	0.01609991
208	0x3e65ec61	0.22453453
209	0x3dd1df94	0.10247722
210	0xbd3ec492	-0.046574183
211	0xbd33864a	-0.04382924
212	0xbe8f6fa6	-0.28014868
213	0xbe14dc9a	-0.14537278
214	0x3c38a566	0.011269903
215	0xbdb669f4	-0.08906928
216	0x3ea4dbc8	0.3219893
217	0xbd40f568	-0.047109038
218	0xbe5021d4	-0.20325404
219	0x3de13269	0.10995943
220	0xbdfecd47	-0.12441497
221	0x3d877348	0.06613785
222	0xbcd8f21c	-0.026482634
223	0x3d275c24	0.040859357
224	0xbe9dcf6b	-0.3082231
225	0xbd4028a6	-0.046913765
226	0x3e0b2e44	0.13591868
227	0x3e41fde9	0.18944515
228	0xbd0ad495	-0.03389414
229	0xbe1f81d9	-0.15576877
230	0x3d3e6ab5	0.046488483
231	0x3e37fc6a	0.17967382
232	0xbd59ceff	-0.053175922
233	0x3e45c102	0.19311908
234	0xbc892281	-0.016740086
235	0x3dedbc46	0.11608176
236	0xbdabc531	-0.08387221
237	0xbd81df68	-0.063414395
238	0x3e25809f	0.16162346
239	0x3c9fe749	0.019519465
240	0xbce232ea	-0.027612168
241	0x3d1bda9e	0.038050286
242	0x3e4da7b9	0.20083512
243	0x3e060faf	0.1309192
244	0x3da1dfd5	0.07904021
245	0xbe283d0c	-0.16429538
246	0xbe823059	-0.2542751
247	0xbc73393b	-0.014845188
248	0x3d95dd58	0.073176086
249	0x3e483ef1	0.1955526
250	0x3db410e6	0.087922856
251	0xbebc7b36	-0.36812752
252	0xbdd1d102	-0.10244943
253	0x3d975974	0.07390109
254	0xbe9aa3e0	-0.30203152
255	0x3e2ba5a8	0.16762412

lstm.bias_ih_l1 f4 [100]
0	0x3e9b6d9e	0.3035707
1	0x3daf8a15	0.08571259
2	0xbceb14b0	-0.028696388
3	0x3edb76f4	0.42864192
4	0xbcc2f736	-0.02379952
5	0x3e0d5ec2	0.13805678
6	0x3e223f53	0.15844469
7	0x3d364aff	0.044505116
8	0x3e877f84	0.26464474
9	0xbe0b4382	-0.13599971
10	0x3e54dc51	0.20787169
11	0x3e074e88	0.13213551
12	0x3e5b5faf	0.21423219
13	0xbe3e5374	-0.18586522
14	0x3e077c13	0.13230924
15	0xbbb51f25	-0.0055273944
16	0x3d967697	0.07346838
17	0xbaca078a	-0.0015413624
18	0xbe056d2c	-0.13029927
19	0x3e79ca0e	0.24393484
20	0x3ee99a82	0.45625693
21	0x3e52199b	0.2051758
22	0x3d59f955	0.053216297
23	0xbdbefbc6	-0.09325366
24	0x3d48b0cc	0.04899673
25	0xbec0ec12	-0.37680107
26	0x3d751a2c	0.059839413
27	0x3b821881	0.0039702062
28	0xbd51ca37	-0.051218238
29	0xbd58fa31	-0.052972976
30	0xbe3acdaa	-0.18242517
31	0xbcafd602	-0.021464352
32	0x3dd20e59	0.10256643
33	0xbdaf863c	-0.08570525
34	0x3caf22c6	0.021378886
35	0x3d70f8c2	0.058830984
36	0xbe0e29c3	-0.13883118
37	0xbe94b7d9	-0.29046515
38	0x3c53e451	0.012932853
39	0xbdab93b5	-0.08377782
40	0x3e444e85	0.19170578
41	0xbebe0d7e	-0.3711967
42	0xbe059d51	-0.13048293
43	0x3ceb2003	0.028701788
44	0xbe6938d9	-0.22775592
45	0xbed46204	-0.4148103
46	0x3e879bbf	0.26486012
47	0xbc95d629	-0.018290596
48	0x3e551052	0.20807007
49	0x3c825768	0.01591082
50	0xbca76a6c	-0.020436488
51	0xbe149520	-0.14510012
52	0xbe014768	-0.12624896
53	0xbc84faa0	-0.016232789
54	0xbda84abf	-0.08217382
55	0x3e9e5920	0.30927372
56	0xbdf59f99	-0.119933315
57	0xbdbe252e	-0.09284435
58	0x3de1f1fe	0.110324845
59	0xbd811e17	-0.06304567
60	0x3e1bd2ba	0.15217105
61	0xbe00bf69	-0.12573017
62	0xbe1edf06	-0.15514764
63	0x3e899d44	0.26877797
64	0xbe3f692f	-0.18692468
65	0xbbf14473	-0.007362896
66	0xbe057933	-0.13034515
67	0xbd1d5190	-0.038407862
68	0x3e538f81	0.20660211
69	0xbdc23e34	-0.094845206
70	0xbcefee81	-0.029288532
71	0xbe199fd9	-0.15002383
72	0xbe1b6ce0	-0.15178251
73	0x3e560cae	0.20903274
74	0x3eabe3b0	0.3357215
75	0x3e9d2a5e	0.30696386
76	0xbdcbb295	-0.09946171
77	0x3d680d36	0.056653224
78	0x3ed7ec79	0.42172602
79	0xbde6c5c4	-0.112681895
80	0xbe6be8b3	-0.23037986
81	0x3e0c3d30	0.13695216
82	0xbe1b22fa	-0.15150061
83	0xbe20dc17	-0.15708958
84	0x3dee8116	0.11645715
85	0x3e7a2be7	0.2443081
86	0x3e06bab4	0.13157159
87	0x3d14565b	0.036215167
88	0xbd30fb68	-0.04320851
89	0x3d5292c1	0.051409487
90	0xbdd5d256	-0.10440509
91	0x3e15ee21	0.1464162
92	0x3e004a47	0.12528335
93	0x3dc48fb3	0.09597721
94	0x3e72a49b	0.23695605
95	0x3ea9a19a	0.33131105
96	0x3efa6434	0.48904574
97	0xbd6f197a	-0.058373906
98	0xbcbb22cf	-0.022843746
99	0x3d733917	0.059380617

lstm.bias_hh_l1 f4 [100]
0	0x3d30dd76	0.04317995
1	0xbdfc0887	-0.12306314
2	0xbd86e5ac	-0.06586775
3	0x3e1ba681	0.15200235
4	0xbdd54655	-0.104138054
5	0x3c528cd0	0.012850955
6	0xbcc47978	-0.023983702
7	0x3df0d56c	0.11759457
8	0xbb87216e	-0.004123858
9	0x3d899dab	0.06719526
10	0x3ebd5333	0.36977538
11	0x3e7b8816	0.24563631
12	0x3ea4dbd7	0.32198974
13	0xbe50705e	-0.20355365
14	0xbe81f4ca	-0.25382072
15	0x3dd717b7	0.1050257
16	0x3db319ad	0.08745132
17	0x3e01eafc	0.12687296
18	0x3e4ff4e7	0.20308267
19	0x3ea7085b	0.32623562
20	0x3ecfd7f9	0.40594462
21	0x3e772cbd	0.2413816
22	0x3e36fd93	0.17870168
23	0x3ce75a12	0.028241191
24	0x3d5f6ce0	0.05454719
25	0xbe61f689	-0.22066702
26	0x3d759f83	0.059966575
27	0xbcc122d8	-0.023576185
28	0xbe1a3872	-0.15060595
29	0xbe773995	-0.2414306
30	0xbe13d7c9	-0.14437784
31	0xbe23f4f9	-0.16011418
32	0xbdfd7bf4	-0.12377158
33	0x3d78e09a	0.06076107
34	0xbe377bae	-0.17918274
35	0xbe62aa5f	-0.22135304
36	0xbe100774	-0.14065343
37	0xbeb4195b	-0.35175595
38	0xbd69cc2b	-0.057079475
39	0x3a963b6b	0.00114618
40	0xbd26658c	-0.040624186
41	0xbed428a9	-0.4143727
42	0x3dd731d5	0.105075516
43	0x3dbbc191	0.09167779
44	0xbe45f0bb	-0.19330113
45	0xbead9630	-0.33903646
46	0x3e31e57a	0.17372695
47	0xbd39213e	-0.045197718
48	0xbda260b2	-0.079285994
49	0xbd80e3e3	-0.06293466
50	0xbcada88a	-0.02119853
51	0xbd389aca	-0.045069493
52	0x3d2d4de3	0.042310607
53	0xbdba4380	-0.09094906
54	0xbd0c8c52	-0.034313507
55	0x3df36f7b	0.118864976
56	0xbcd060ee	-0.025436845
57	0xbdf44f2c	-0.11929163
58	0xbe007f0e	-0.12548468
59	0xbc9c2dc0	-0.019064784
60	0x3d085f03	0.033293735
61	0xbcbb41a0	-0.02285844
62	0x3de4fa9e	0.11180614
63	0x3969968a	0.00022276692
64	0xbd20be3c	-0.03924392
65	0x3e6a25cd	0.22865982
66	0xbd72c9f6	-0.059274636
67	0x3e06eabe	0.13175485
68	0x3de773e8	0.11301404
69	0xbe37cceb	-0.17949264
70	0x3d332de1	0.043744925
71	0xbdecc313	-0.11560645
72	0xbc0680b1	-0.008209393
73	0xbdb912c0	-0.090367794
74	0x3c3f3f65	0.011672829
75	0x3e85b48d	0.26114312
76	0xbd44b4c1	-0.048023943
77	0x3e5b7226	0.21430263
78	0x3e74407a	0.23852721
79	0xbe493387	-0.19648562
80	0xbe3e5cb4	-0.18590051
81	0x3df1ff13	0.1181623
82	0x3d554336	0.05206605
83	0x3dec27fc	0.11531064
84	0xbdd34353	-0.103155755
85	0x3d311f0c	0.0432425
86	0xbdd6c305	-0.10486416
87	0x3e986d17	0.2977073
88	0xbd395738	-0.045249194
89	0xbe0eea0d	-0.13956471
90	0xbd611d03	-0.05495931
91	0x3e3c7082	0.18402293
92	0xbe181a0f	-0.1485369
93	0xbde88d9d	-0.113551356
94	0x3e3e41f7	0.18579851
95	0x3e91a0e3	0.2844306
96	0x3f207bfe	0.626892
97	0x3db1fa1a	0.08690281
98	0x3e86f28d	0.26356927
99	0xbcb44187	-0.022003902

linear1.weight f4 [25, 25]
0	0xbc70cdb7	-0.014697484
1	0x3e8e6edd	0.27818957
2	0x3e8b8f70	0.27257872
3	0xbe0de5a5	-0.13857134
4	0x3d304a90	0.04303986
5	0x3d8c7e85	0.06860069
6	0x3e04170f	0.12899421
7	0x3e32226d	0.17395945
8	0x3aed3aab	0.001809915
9	0xbe616698	-0.22011793
10	0x3d68dd82	0.05685187
11	0x3e29690a	0.16543975
12	0xbda50a46	-0.080586
13	0xbe106612	-0.14101437
14	0x3e0088c8	0.12552178
15	0xbcc69ff9	-0.024246203
16	0x3cfcfa03	0.030880934
17	0x3dc4bf05	0.096067466
18	0xbe1fa983	-0.15592007
19	0x3e0022b6	0.12513241
20	0xbe640c70	-0.2227037
21	0xbaacb90e	-0.0013177709
22	0x3d4a5eec	0.04940693
23	0xbe2fcc40	-0.17167759
24	0xbdc6178b	-0.09672459
25	0x3dc5586b	0.09636005
26	0x3dc7a813	0.097488545
27	0x3e7af7e3	0.24508624
28	0x3beec61e	0.007286801
29	0x3e3838a6	0.1799036
30	0xbdcf3645	-0.10117773
31	0x3d6f5b16	0.058436476
32	0x3e870ddd	0.26377764
33	0x3dbfff7e	0.09374903
34	0xbe88c6a2	-0.26714045
35	0xbe091744	-0.13387781
36	0x3e8e9570	0.27848387
37	0xbc968df9	-0.018378245
38	0x3b20855e	0.0024493556
39	0xbcdad772	-0.02671406
40	0x3d31c167	0.043397333
41	0x3e709ef7	0.2349814
42	0xbe757522	-0.23970464
43	0x3d56f0b1	0.052475635
44	0x3d099d50	0.03359729
45	0xbdfef2f7	-0.124486856
46	0xbe3aae18	-0.18230474
47	0x3c64cd27	0.013964928
48	0xbca73bd8	-0.020414278
49	0xbe044cdf	-0.12919949
50	0xbdbc4935	-0.09193651
51	0x3e065be6	0.13120994
52	0x3e729614	0.23690063
53	0xbe978907	-0.2959673
54	0x3ecb87ce	0.39752048
55	0x3e86a707	0.26299307
56	0x3e89cd28	0.26914334
57	0x3e95cf65	0.29259792
58	0x3e860a08	0.26179528
59	0x3e41187a	0.18856993
60	0xbe38b125	-0.18036325
61	0x3ed00d80	0.406353
62	0x3e31eac7	0.17374717
63	0x3ebc6b9c	0.3680085
64	0xbe3bf790	-0.18356156
65	0xbea562a5	-0.32301822
66	0xbdca5c81	-0.09880925
67	0xbbb3cb31	-0.005486869
68	0xbdd25133	-0.10269394
69	0x3ea47ea9	0.32127884
70	0xbe920575	-0.28519788
71	0x3e3728e5	0.17886694
72	0x3e2738d7	0.16330276
73	0xbe8fbff9	-0.2807615
74	0xbed1ac91	-0.4095197
75	0x3ce7e421	0.028307023
76	0x3d9988ea	0.074968174
77	0x3e910eec	0.28331697
78	0x3dd4da7d	0.10393236
79	0x3e2c7592	0.16841725
80	0xbe4f7656	-0.20259985
81	0xbd12a696	-0.0358034
82	0x3ed90bf0	0.4239192
83	0x3e49e710	0.1971705
84	0xbe922d6c	-0.2855028
85	0xbe3a189e	-0.18173453
86	0x3db94c09	0.09047706
87	0x3cce0a60	0.025151432
88	0xbdb6500d	-0.08901987
89	0x3dae69a6	0.085162446
90	0xbe9f669c	-0.31132972
91	0xbe7a0169	-0.244146
92	0xbdd12d53	-0.10213723
93	0xbe79520e	-0.24347708
94	0x3eb0ce27	0.34532282
95	0xbeab06cf	-0.33403632
96	0x3dce1b42	0.10063793
97	0xbbedcfe9	-0.007257451
98	0xbe3ca6e5	-0.1842304
99	0xbc0985f6	-0.008393755
100	0x3eb08f74	0.34484446
101	0x3e575613	0.21028928
102	0x3e3a0a55	0.18168004
103	0xbe89eb15	-0.26937166
104	0xbd38e529	-0.04514042
105	0x3cffd9d2	0.031231795
106	0x3e9840dc	0.29736984
107	0x3e98911c	0.2979821
108	0xbdfd235a	-0.123602584
109	0x3d8e9afc	0.06963155
110	0xbe33318f	-0.17499374
111	0x3e81c70c	0.25347173
112	0xbe81c16a	-0.25342876
113	0xbd86432a	-0.06555779
114	0x3cb05658	0.021525547
115	0xbe9876ad	-0.29778042
116	0x3e8076f7	0.25090763
117	0x3daf8fe0	0.08572364
118	0xbd5f107b	-0.054459076
119	0x3d87485c	0.06605598
120	0xbe2243c1	-0.15846159
121	0x3ddf8283	0.10913565
122	0xbd3bbac8	-0.045832425
123	0xbe69e6e8	-0.2284199
124	0xbe97ee55	-0.2967402
125	0xbce8ef81	-0.028434517
126	0x3cf1c6d8	0.029513761
127	0x3e4944be	0.1965513
128	0xbd9d5a07	-0.07683187
129	0xbe39e028	-0.18151915
130	0x3e42e90d	0.19034214
131	0x3bff158f	0.0077845524
132	0xbd63dca7	-0.055630352
133	0x3e7486e4	0.23879582
134	0xbd822a2e	-0.063557014
135	0x3baf2e63	0.005346106
136	0x3c90e1ba	0.01768576
137	0xbe957706	-0.2919237
138	0xbd6af0d8	-0.057358593
139	0xbc46a4eb	-0.01212428
140	0x3c9ff89a	0.019527722
141	0x3cdcab58	0.026937172
142	0x3bdda548	0.006764088
143	0xbe5fc53f	-0.21852587
144	0xbe004e7d	-0.12529941
145	0xbc6d44f9	-0.014481776
146	0xbe005d5d	-0.12535615
147	0x3e6586ac	0.22414654
148	0xbd2afbf7	-0.0417442
149	0xbe2400f9	-0.16015996
150	0xbd4eab92	-0.05045659
151	0x3dbb479f	0.0914452
152	0xbcf204da	-0.029543329
153	0xbe55eec6	-0.20891866
154	0xbd28643a	-0.04111121
155	0xbe6edfde	-0.23327586
156	0x3de47a30	0.11156118
157	0xbe00f0e7	-0.12591897
158	0xbd1ea410	-0.03873068
159	0x3e030b18	0.127972
160	0x3dd9c447	0.1063314
161	0x3a4d3764	0.0007828383
162	0x3e080bfc	0.13285822
163	0x3d5d9cfd	0.054104794
164	0x3d54dc81	0.0519681
165	0xbd9fc666	-0.078015134
166	0x3e164fbf	0.14678858
167	0x3e274198	0.16333616
168	0xbd981ed6	-0.074277565
169	0xbdbe1e54	-0.092831284
170	0x3cba0506	0.022707473
171	0x3da1faab	0.07909139
172	0x3de67266	0.112522885
173	0xbe1217a7	-0.14266835
174	0x3e4ecde5	0.2019573
175	0xbede6fb0	-0.43444586
176	0xbe99199d	-0.29902354
177	0x3df3064b	0.11866435
178	0x3df2069e	0.118176684
179	0xbe08d92f	-0.13364099
180	0x3ea9aed1	0.33141187
181	0xbe2c5840	-0.1683054
182	0x3e5a76c8	0.21334374
183	0xbdf86de0	-0.12130332
184	0xbd885da4	-0.066584855
185	0xbe8c83b6	-0.27444237
186	0x3e9360f1	0.28784898
187	0x3d6d21ef	0.05789369
188	0x3ec6a062	0.38794237
189	0xbeb681bc	-0.35645854
190	0x3e02ea8b	0.12784784
191	0xbe849406	-0.25894183
192	0xbe156c2b	-0.14592044
193	0x3b75d119	0.0037508665
194	0x3e6cb8ff	0.23117445
195	0xbede3708	-0.4340136
196	0x3e57516a	0.21027151
197	0x3e666b34	0.22501832
198	0xbe1136d4	-0.14181072
199	0x3f1d2870	0.6138983
200	0xbe2133f2	-0.15742472
201	0x3e215aa8	0.15757239
202	0xbd821918	-0.063524425
203	0xbd140a36	-0.03614255
204	0xbde611ec	-0.11233887
205	0x3df616cb	0.12016066
206	0x3e654940	0.22391224
207	0xbccb9a5d	-0.02485388
208	0xbdd76513	-0.10517325
209	0xbcbfb6e4	-0.023402639
210	0xbe102a95	-0.14078744
211	0x3e868b14	0.26277983
212	0xbe925e41	-0.28587535
213	0x3e89ad48	0.26890016
214	0xbe1503e8	-0.14552271
215	0xbe8ebc0e	-0.2787785
216	0xbe8185fc	-0.25297534
217	0xbeb3fb19	-0.3515251
218	0xbe693f5d	-0.22778077
219	0x3e899111	0.2686849
220	0xbf01a74f	-0.5064592
221	0xbe5c42f0	-0.2150991
222	0x3df557b6	0.1197962
223	0xbe9c64f1	-0.30545762
224	0x3e2d6b50	0.16935468
225	0x3d077127	0.033066895
226	0xbd957257	-0.07297199
227	0xbde2649a	-0.110543445
228	0x3d5376ba	0.0516269
229	0xbe317c77	-0.17332636
230	0xbdb9663a	-0.09052701
231	0x3d8b3f5a	0.06799193
232	0x3da847d0	0.08216822
233	0xbc33981a	-0.010961557
234	0x3d0e29d3	0.034707855
235	0xbcf77ec0	-0.030211806
236	0x3e27987d	0.16366763
237	0x3c1d621a	0.009605909
238	0xbde60d07	-0.112329535
239	0x3d57f627	0.052724984
240	0x3e29b5b8	0.16573226
241	0xbdaf1070	-0.08548057
242	0x3e43b69f	0.19112633
243	0x3cc259f3	0.023724532
244	0xbccad18d	-0.024758125
245	0x3bc62800	0.006047249
246	0xbcbf6e00	-0.023367882
247	0x3e2aba5f	0.16672657
248	0xbd356eed	-0.04429524
249	0x3d57d61a	0.052694418
250	0xbe59661d	-0.2123036
251	0x3e5da640	0.2164545
252	0xbe04f8c0	-0.12985516
253	0xbdbd5554	-0.09244791
254	0x3de58d2a	0.112085655
255	0x3d85caff	0.06532859

linear1.bias f4 [25]
0	0xbe13b167	-0.14423142
1	0xbdd094cd	-0.101846315
2	0x3d5a99d0	0.053369343
3	0x3d2e9579	0.042623017
4	0x3e3b9635	0.18319018
5	0x3d0466d1	0.032324616
6	0xbe0c4210	-0.13697076
7	0x3e1c0e51	0.15239836
8	0x3e3c66db	0.18398611
9	0xbe36fcaf	-0.17869829
10	0xbd9db646	-0.077007815
11	0x3e552ff5	0.20819075
12	0x3e025b32	0.12730101
13	0x3d9cf22f	0.0766338
14	0x3e94a5ec	0.29032838
15	0xbe33a7e7	-0.17544518
16	0xbeab5591	-0.3346372
17	0x3e897921	0.26850227
18	0xbe3b7d1a	-0.18309441
19	0x3d75b1aa	0.059983887
20	0xbe0f661b	-0.14003794
21	0xbe3f1bf7	-0.18663011
22	0x3e9b89a9	0.30378464
23	0x3d9a11a3	0.07522895
24	0x3bfeb2e3	0.00777279

linear2.weight f4 [25, 25]
0	0xbe0184ea	-0.12648359
1	0xbde32157	-0.110903434
2	0x3d8178d3	0.063218735
3	0x3d5bb68d	0.05364089
4	0xbd9811fa	-0.07425304
5	0xb913eccd	-0.00014107228
6	0xbdd01a50	-0.10161269
7	0x3e038492	0.1284354
8	0x3cf57b5a	0.029966045
9	0xbdad46ed	-0.08460794
10	0xbd5a7ba0	-0.053340554
11	0xbdd9719e	-0.10617374
12	0xbd984e1e	-0.07436775
13	0x3dd782c6	0.1052299
14	0xbc1d5055	-0.009601672
15	0x3cfac1b3	0.030609941
16	0x3d252340	0.04031682
17	0xbe0ea7d9	-0.13931216
18	0x3d05be1a	0.032651998
19	0xbe281c7e	-0.16417119
20	0x3e140a6b	0.14457099
21	0xbdb6ff2d	-0.0893539
22	0xbc145bd1	-0.009055094
23	0x3e2617c1	0.16219999
24	0xbd475b93	-0.048671316
25	0xbc0c64e7	-0.008568979
26	0xbe20dd9d	-0.15709539
27	0xbdf19a4c	-0.11797008
28	0x3e086579	0.13319959
29	0xbe3a6ce6	-0.18205604
30	0xbde10ce7	-0.10988789
31	0x3e0945e2	0.13405564
32	0xbd0f2f12	-0.034957
33	0xbd367b57	-0.04455122
34	0xbd043773	-0.032279443
35	0xbd97291e	-0.07380889
36	0x3d9ce275	0.07660381
37	0xbe8f6b8b	-0.28011736
38	0x3bfd266f	0.007725529
39	0x3cf422ef	0.029801814
40	0xbe19ec1b	-0.15031473
41	0xbe2e7be2	-0.17039445
42	0xbdf88068	-0.121338665
43	0xbd5a42a7	-0.05328622
44	0xbe2001de	-0.15625712
45	0xbdd44970	-0.103655696
46	0x3e27e25b	0.16394942
47	0xbe3c2b92	-0.18375996
48	0xbd518094	-0.051148012
49	0xbe1abae5	-0.15110357
50	0xbdbae5fd	-0.09125898
51	0x3daf3bb7	0.085563116
52	0xbbb3a833	-0.0054826974
53	0xbccfbe40	-0.025359273
54	0xbdabb646	-0.08384375
55	0x3dbf8c83	0.09352972
56	0xbdfcdf70	-0.12347305
57	0xbe231fca	-0.15930095
58	0x3d9bda30	0.07609975
59	0xbe18f8d7	-0.14938675
60	0xbe343eb7	-0.17602049
61	0xbd7d3dea	-0.061826624
62	0xbe338455	-0.1753095
63	0xbdd8900d	-0.105743505
64	0xbdde17e1	-0.10844398
65	0xbe2ac293	-0.16675787
66	0xbddaff8d	-0.10693274
67	0x3ce1b278	0.02755092
68	0xbdef2753	-0.116774224
69	0xbde45227	-0.11148482
70	0xbd012887	-0.03153279
71	0x3e11056d	0.14162226
72	0x3dbd8613	0.09254088
73	0xbe5337fa	-0.20626822
74	0x3bad8900	0.0052958727
75	0x3d01cd0e	0.031689696
76	0x3e146769	0.14492573
77	0x3f4b94bd	0.7952383
78	0x3f016aa5	0.5055335
79	0xbe7f3579	-0.24922742
80	0x3f5c2636	0.85995805
81	0xbe0631ad	-0.13104887
82	0xbe7cde26	-0.24694118
83	0x3e719cd2	0.23594978
84	0x3c223500	0.0099003315
85	0x3d91ef48	0.071257174
86	0x3dbe71e9	0.092990704
87	0x3dd31916	0.10307519
88	0xbe06d6cf	-0.1316788
89	0x3dc45b23	0.095876954
90	0xbde9acf7	-0.114099436
91	0x3e62a67b	0.2213382
92	0x3d552e41	0.052046064
93	0xbd82d566	-0.06388359
94	0x3e9a6ce5	0.30161205
95	0x3da49ad3	0.08037343
96	0xbdc161d5	-0.09442488
97	0xbe41fc81	-0.18943979
98	0x3de53a4c	0.1119276
99	0xbe4ffe8d	-0.20311947
100	0xb7740000	-1.4543533e-05
101	0x3e44a4f5	0.19203551
102	0x3db8ae74	0.09017649
103	0xbdb2943a	-0.08719678
104	0xbe8e8118	-0.27832866
105	0x3b5363c3	0.0032255508
106	0xbe4af92a	-0.19821611
107	0x3d931ec6	0.07183604
108	0xbe384a97	-0.17997204
109	0x3e3e17b0	0.18563724
110	0xbe8344da	-0.25638467
111	0xbe37ea74	-0.1796053
112	0xbe76e56f	-0.2411096
113	0xbe41319f	-0.18866585
114	0xbe5cbcae	-0.2155635
115	0x3c9cc8e7	0.019138766
116	0x3dd47f87	0.103758864
117	0xbe3bdc6d	-0.18345805
118	0xbde4769d	-0.11155436
119	0xbcbde90a	-0.02318241
120	0xbdbd0667	-0.09229737
121	0xbd0344b3	-0.03204794
122	0xbdc22781	-0.09480191
123	0x3b5e2500	0.0033896565
124	0xbe524d69	-0.20537342
125	0xbf85334a	-1.0406277
126	0xbe25b517	-0.16182362
127	0xbf8047dd	-1.0021931
128	0xbe9b43d3	-0.30325183
129	0x3f984926	1.1897323
130	0x3e0b7761	0.13619758
131	0xbec0e579	-0.37675074
132	0xbe26709b	-0.16253893
133	0xbf1bf0c1	-0.60914236
134	0xbd0f94fa	-0.035054184
135	0x3f164e2c	0.5871303
136	0xbb9dc455	-0.0048146644
137	0xbe274663	-0.16335444
138	0x3f1f8896	0.6231779
139	0x3e8d9e49	0.27659824
140	0xbddf1a30	-0.10893667
141	0xbe8148c4	-0.25250828
142	0x3ebfefa0	0.37487507
143	0x3de1f4a2	0.11032988
144	0x3db225ea	0.08698638
145	0xbd9f964a	-0.07792337
146	0x3d9d5e9a	0.076840594
147	0x3ea2a519	0.31766585
148	0x3dc45a22	0.09587504
149	0x3e167177	0.14691721
150	0xbd25a7ed	-0.04044335
151	0xbdb33bed	-0.08751664
152	0x3e10bc58	0.14134347
153	0xbdfb3070	-0.12265098
154	0x3df9439d	0.12171099
155	0x3dfa400d	0.12219248
156	0x3e19c7aa	0.15017572
157	0x3e34c6e2	0.17653993
158	0xbdf02a57	-0.11726826
159	0xbe3fb4b7	-0.18721281
160	0xbe10b105	-0.14130028
161	0x3d705e0d	0.058683444
162	0xbdf4236d	-0.119208194
163	0xbe4b2fbd	-0.1984243
164	0xbdaa978d	-0.08329687
165	0xbd593f93	-0.053039145
166	0x3bbd1f67	0.0057715657
167	0xbd80a67d	-0.06281755
168	0xbda9b8fa	-0.082872346
169	0x3d831bad	0.06401763
170	0xbe282222	-0.1641927
171	0xbe053b3b	-0.13010876
172	0xbdf714f7	-0.120645456
173	0xbd7bf2d3	-0.061510872
174	0xbdf7e49a	-0.12104149
175	0xbd311a66	-0.043238066
176	0x3df23761	0.11826969
177	0x3eaaeb31	0.33382562
178	0xbdccba3e	-0.099964604
179	0x3d6d9c59	0.058010433
180	0xbd2b7d77	-0.0418677
181	0x3d9a4036	0.075317785
182	0xbf585629	-0.8450647
183	0x3e35c826	0.17752132
184	0x3ded2c27	0.11580687
185	0x3e4b16e6	0.19832954
186	0x3db94c93	0.090478085
187	0x3de27468	0.11057359
188	0xbe4e2da1	-0.20134594
189	0x3cc2eff8	0.023796067
190	0xbdd60603	-0.104503654
191	0xbc4e8e5b	-0.012607182
192	0x3db79354	0.089636475
193	0xbe0c5b4d	-0.13706703
194	0x3dd6ca69	0.104878254
195	0xbc55387a	-0.013013953
196	0x3cf81072	0.03028128
197	0x3e91336d	0.28359547
198	0x3d876768	0.0661152
199	0x3def422a	0.11682542
200	0x3dceb807	0.10093694
201	0x3c1a079a	0.009401226
202	0xbdcda1fd	-0.100406624
203	0xbe2869c3	-0.16446595
204	0x3e17645b	0.14784376
205	0xbde93610	-0.11387265
206	0x3e3d551b	0.18489496
207	0xbd6d97b3	-0.058006
208	0x3df08677	0.11744397
209	0xbd01f2cd	-0.031725693
210	0xbdd8ca37	-0.105854444
211	0xbe068a23	-0.13138632
212	0xbda27fca	-0.0793453
213	0xbdd1d460	-0.102455854
214	0xbd063e27	-0.032774117
215	0xbd9f4c87	-0.07778268
216	0xbe023c1b	-0.12718241
217	0xbe255588	-0.16145909
218	0x3dce7b0d	0.10082064
219	0x3dd73a7a	0.105092004
220	0x3cfdab27	0.0309654
221	0xbda9973a	-0.08280797
222	0x3d43a253	0.047762226
223	0xbe05cd7f	-0.13066672
224	0xbe136cf8	-0.14397037
225	0x3bff45ad	0.0077902884
226	0x3d7a4d56	0.06110891
227	0x3e217c30	0.1577003
228	0xbd47218c	-0.048615977
229	0xbd791d10	-0.06081873
230	0x3ba5affe	0.0050563803
231	0xbca45b58	-0.020063087
232	0xbee903a2	-0.45510584
233	0x3e5699f2	0.20957163
234	0x3e16c00b	0.14721696
235	0xbdcc2bf5	-0.09969322
236	0x3e41f853	0.18942384
237	0x3e968709	0.293999
238	0xbe0e21b4	-0.13880044
239	0xbda5fe5b	-0.08105155
240	0xbdb1d70d	-0.08683596
241	0xbe413609	-0.18868269
242	0x3d0d6f21	0.03452981
243	0x3d1be566	0.03806057
244	0x3e763be0	0.24046278
245	0x3d9250cd	0.07144318
246	0xbd2b1d83	-0.04177619
247	0xbca41aed	-0.02003237
248	0x3e1c8bd2	0.15287712
249	0x3e97a444	0.29617512
250	0x3e67ace0	0.2262454
251	0xbd8c5727	-0.068525605
252	0x3d639295	0.055559713
253	0xbd900ad8	-0.07033318
254	0x3e40fa3a	0.18845454
255	0x3e38a5ff	0.18032072
